{
  "experiment_name": "wave_transformer_experiment",
  "timestamp": "2025-10-02T20:39:51.149394",
  "architecture": {
    "representation": "WaveTransformer(\n  (wave_encoder): TokenToWaveEncoderSimple(\n    (embedding): Embedding(49152, 512)\n    (position_embedding): SinusoidalPositionEmbedding()\n    (freq_generator): WaveEncoderBlock(\n      (layers): ModuleList(\n        (0-1): 2 x NonCausalParallelBlock(\n          (norm): RMSNorm()\n          (attn): FlashAttention(\n            (qkv): Linear(in_features=512, out_features=1536, bias=False)\n            (out_proj): Linear(in_features=512, out_features=512, bias=True)\n          )\n          (ffn): SwiGLU(\n            (w1): Linear(in_features=512, out_features=1024, bias=False)\n            (w2): Linear(in_features=1024, out_features=512, bias=False)\n            (w3): Linear(in_features=512, out_features=1024, bias=False)\n            (dropout): Dropout(p=0.1, inplace=False)\n          )\n          (dropout): Dropout(p=0.1, inplace=False)\n        )\n      )\n      (proj): Linear(in_features=512, out_features=64, bias=True)\n    )\n    (amp_generator): WaveEncoderBlock(\n      (layers): ModuleList(\n        (0-1): 2 x NonCausalParallelBlock(\n          (norm): RMSNorm()\n          (attn): FlashAttention(\n            (qkv): Linear(in_features=512, out_features=1536, bias=False)\n            (out_proj): Linear(in_features=512, out_features=512, bias=True)\n          )\n          (ffn): SwiGLU(\n            (w1): Linear(in_features=512, out_features=1024, bias=False)\n            (w2): Linear(in_features=1024, out_features=512, bias=False)\n            (w3): Linear(in_features=512, out_features=1024, bias=False)\n            (dropout): Dropout(p=0.1, inplace=False)\n          )\n          (dropout): Dropout(p=0.1, inplace=False)\n        )\n      )\n      (proj): Linear(in_features=512, out_features=64, bias=True)\n    )\n    (phase_generator): WaveEncoderBlock(\n      (layers): ModuleList(\n        (0-1): 2 x NonCausalParallelBlock(\n          (norm): RMSNorm()\n          (attn): FlashAttention(\n            (qkv): Linear(in_features=512, out_features=1536, bias=False)\n            (out_proj): Linear(in_features=512, out_features=512, bias=True)\n          )\n          (ffn): SwiGLU(\n            (w1): Linear(in_features=512, out_features=1024, bias=False)\n            (w2): Linear(in_features=1024, out_features=512, bias=False)\n            (w3): Linear(in_features=512, out_features=1024, bias=False)\n            (dropout): Dropout(p=0.1, inplace=False)\n          )\n          (dropout): Dropout(p=0.1, inplace=False)\n        )\n      )\n      (proj): Linear(in_features=512, out_features=64, bias=True)\n    )\n  )\n  (layers): ModuleList(\n    (0-15): 16 x ParallelBlock(\n      (norm): RMSNorm()\n      (attn): FlashAttention(\n        (qkv): Linear(in_features=192, out_features=576, bias=False)\n        (out_proj): Linear(in_features=192, out_features=192, bias=True)\n      )\n      (ffn): SwiGLU(\n        (w1): Linear(in_features=192, out_features=768, bias=False)\n        (w2): Linear(in_features=768, out_features=192, bias=False)\n        (w3): Linear(in_features=192, out_features=768, bias=False)\n        (dropout): Dropout(p=0.1, inplace=False)\n      )\n      (dropout): Dropout(p=0.1, inplace=False)\n    )\n  )\n  (norm_f): RMSNorm()\n  (wave_decoder): WaveToTokenDecoder(\n    (input_projection): Linear(in_features=192, out_features=512, bias=True)\n    (self_attention): FlashAttention(\n      (qkv): Linear(in_features=512, out_features=1536, bias=False)\n      (out_proj): Linear(in_features=512, out_features=512, bias=True)\n    )\n    (hidden_projection): Linear(in_features=512, out_features=1024, bias=True)\n    (decoder_layers): ModuleList(\n      (0-2): 3 x Sequential(\n        (0): Linear(in_features=1024, out_features=1024, bias=True)\n        (1): RMSNorm()\n        (2): GELU(approximate='none')\n        (3): Dropout(p=0.1, inplace=False)\n      )\n    )\n    (output_projection): Sequential(\n      (0): Linear(in_features=1024, out_features=512, bias=True)\n      (1): GELU(approximate='none')\n      (2): Linear(in_features=512, out_features=49152, bias=True)\n    )\n  )\n)",
    "total_parameters": 81007488,
    "trainable_parameters": 81007488,
    "layer_details": [
      {
        "name": "wave_encoder.embedding",
        "type": "Embedding",
        "parameters": 25165824
      },
      {
        "name": "wave_encoder.position_embedding",
        "type": "SinusoidalPositionEmbedding",
        "parameters": 0
…
